churn_prediction_model.pth (torch, 12148 bytes, 8 tensors)

weight f4 [16, 26]
00000000: a632 153d d620 be3d 9973 29be ef62 3b3e
00000010: 2e12 d33d 607a 233e d906 87bd 97d7 363e
00000020: 6d13 23be a454 3cbd b784 9e3d 3511 273e
00000030: 72e2 febc 86e2 d63d 6004 1c3e fc3d 68bd
00000040: d56d ed3d 56e8 41be 9b49 db3d 7c10 ad3d
00000050: f4ea 20be 90f3 d43d 74e1 fabd 7b48 1f3d
00000060: 5dd7 163e cd1d e63d 1433 033e 17f9 05be
00000070: f9eb 153e 1c1e 02be 90e5 f5bd 3531 a4bd
00000080: 6da3 433d 3bc3 eabc 34cb 373d 97fd 13be
00000090: 3d94 45be 8a1b 993d e849 433e 0d26 9c3d
000000a0: d517 123e efe2 e83d 177b 12be 09c4 423e
000000b0: a76b 3cbe 95b3 a23d 81a0 a0bd 618a adbd
000000c0: 384f a5bd 4ae9 b9bd cdcc 9dbd 690d 97bd
000000d0: 634f bfbd 46fa 66bd f65c 1e3d 5064 23be
000000e0: 35b6 19be 6a33 813c 7ac6 18be 6481 c23d
000000f0: 8e94 33be faaa 0e3c 84d1 313c 414e 263e
00000100: 5674 4ebd 0c29 f8bd 7d32 08be da72 2d3e
00000110: be0f 323e 719b 013e 3768 30be 14c2 473e
00000120: 38de 113e bc74 3cbe 4c6e 1ebe 59ac 9bbd
00000130: 67fb 183e 83e8 c03d 0f5f 313d b51e 23be
00000140: eec1 0cbd 04ba 8d3d 9d20 f63b b5e0 d5bd
00000150: fe8d e4bd 8f05 333e ed64 163d 04d2 14be
00000160: 13ee 0d3e af06 1d3e a0ea a8ba 5b28 ecbc
00000170: 10ca ac3d 294c a0bd c29c 9c3b 94d6 e3bd
00000180: 19cb 62bc 2845 35be a4dc 2a3e e6f8 453e
00000190: 3a2a e03d 0cbd d53d e58f 233e 7ef2 b6bd
000001a0: 4ac6 be3b 45b9 1e3e 278b 2dbe fdcc 3d3d
000001b0: 4e8d ddbd 13cc 0ebe e5a5 05be 9c70 05be
000001c0: 951e 33be 9385 1f3e d60f 0f3e e060 4cbe
000001d0: f792 583d 022a debd 719b 70bc 4dc9 eb3d
000001e0: 1df6 0f3e aa19 ddbc e655 263e b98c fcbd
000001f0: f1f3 e53d ec8d 9ebd 7c61 3fbe f1ed 0bbb
00000200: 3f46 1fbe 14d3 cebd 94d4 743d 1601 0a3b
00000210: 0934 acbd 095f c4bd e1e5 553e 2a94 6e3e
00000220: 94dc 183d 400a 17bd ab68 d2bd 62d5 8f3d
00000230: bd65 183d f508 a4bd 213a b93b 7e06 2ebe
00000240: 993c f63d feef b83c a337 aabd f76a 96be
00000250: 9d4c 603e f874 9bbe eea9 e23d bca4 943e
00000260: f885 3e3e 7e0b 423e 9047 913d 4f94 3a3b
00000270: 1749 91bc 15ff a2bd 39bf 1abd 4d7e 3bbe
00000280: 4fd0 9d3b f4db 03be b79f 923d 93d3 96bc
00000290: 98f5 97bb abdf 1cbe 7f8a aa3d a274 efbd
000002a0: 86f9 fe3d db95 f1bc 5830 3abe 42ab 1dbc
000002b0: 430a 43be 0715 383e d7d4 81bd b917 00bd
000002c0: db81 af3d 5e89 e33d 8ef5 6bbd 57b8 26bd
000002d0: f4cf 03be c3ff 6ebd b536 1f3e 1d6e d83c
000002e0: ea1f 193e 40e2 2ebe bf58 e73c 5b56 ac3d
000002f0: 5af3 0b3c 9cab 273e 6cb6 ee3d a924 923d
00000300: 927d bb3d 4910 273d 1966 92bd c28c ef3d
00000310: 9d79 c13d 5f2a 903a 1b4f 463c f475 c1bd
00000320: a87e 4ebd c44f f3bd f0f5 d63d d7cc 373e
00000330: d63c c1bd 8ea4 393d c621 debd cf9d 32bd
00000340: b67e 31be b128 923c fc06 1d3e e22c 213e
00000350: 896a a13e c3cc 28bb 175b 9cbd 3d18 613e
00000360: 4564 813d d806 053d 8a4b cf3d 9249 03be
00000370: e2d2 8d3b 3faf 9b3d a2ff 553d 828b c0bd
00000380: bbe1 d23b a2c5 36be c42a e83a 759e 12be
00000390: edac 5bbd cd89 3d3e 22bb 533d 327d 203e
000003a0: aedd 33be 6a06 6a3d efba 15bd b211 9bbc
000003b0: d98d 413d f191 a13d 66d1 42be e934 303e
000003c0: 7231 ffbd 385e 893d 5029 d13d ca0a 23be
000003d0: 6b55 8cbc b02a a5bc d6c0 163e 9eff c7bb
000003e0: 5a92 993d 1d97 58be 3ac6 643d f9a3 063e
000003f0: 642e cfbd 5c4e 1bbe 0381 2cbe e386 11be
0.036425255 0.09283607 -0.16548003 0.18299459 0.10306202 0.15964651 -0.06593103 0.17855678
-0.15925379 -0.045979157 0.07740157 0.16315158 -0.031113837 0.10492425 0.15236044 -0.056699738
0.115932144 -0.18936285 0.107073985 0.0845041 -0.15714628 0.10398018 -0.12250033 0.038887482
0.14730592 0.11236153 0.12812454 -0.13083301 0.14640798 -0.12706798 -0.12006676 -0.08017198
0.047763277 -0.028657546 0.044871524 -0.14452206 -0.1929483 0.07475956 0.19071162 0.07624445
0.14266904 0.11371409 -0.14304768 0.19020094 -0.18400441 0.07944409 -0.07843114 -0.08473659
-0.080717504 -0.090776995 -0.07705078 -0.07375605 -0.09341314 -0.056391023 0.038662873 -0.15956235
-0.15010913 0.015771586 -0.14919463 0.094973356 -0.17537138 0.008707756 0.010853175 0.16240789
-0.050403915 -0.12117204 -0.1330051 0.16938344 0.17388818 0.12656952 -0.17227255 0.19507629
0.14244926 -0.18403906 -0.15471762 -0.07601232 0.14939652 0.09419348 0.043303546 -0.15929683
-0.034364633 0.06920245 0.007511212 -0.1044325 -0.11159895 0.17482589 0.036717344 -0.1453324
0.1386035 0.15334581 -0.0012887307 -0.028827837 0.08436978 -0.078270264 0.004779429 -0.11124912
-0.013842368 -0.17702162 0.1668573 0.19333228 0.10945554 0.104364485 0.1597286 -0.089329705
0.0058219777 0.15500362 -0.16947614 0.04633807 -0.10817967 -0.13945036 -0.13051565 -0.13031238
-0.17492135 0.15578298 0.13970885 -0.1995883 0.05287453 -0.10847856 -0.014685498 0.115130045
0.14058729 -0.026989777 0.16243705 -0.12331528 0.11228169 -0.07741913 -0.18689531 -0.002135154
-0.1555414 -0.10098854 0.059773043 0.0021057776 -0.084083624 -0.09588439 0.20888473 0.23298708
0.037319735 -0.03687501 -0.1027387 0.070231214 0.0372064 -0.08009521 0.0056526815 -0.16994664
0.12023277 0.022575375 -0.08311393 -0.29378483 0.21904226 -0.30362678 0.11067568 0.29031932
0.18605793 0.18949696 0.070937276 0.0028469746 -0.017735047 -0.07958809 -0.03778002 -0.18309899
0.004816092 -0.12876874 0.071593694 -0.018411433 -0.0046374314 -0.15319698 0.08327197 -0.11692168
0.124499366 -0.029490402 -0.18182504 -0.009623351 -0.19046883 0.17976771 -0.06339424 -0.031272624
0.0856969 0.11110185 -0.057607226 -0.040703144 -0.12872297 -0.058349382 0.15548213 0.026419694
0.1495358 -0.17078495 0.02824056 0.084149085 0.008541906 0.16374058 0.11655888 0.071358986
0.0915481 0.040787015 -0.0714838 0.11696769 0.09447024 0.0010998956 0.012103821 -0.09446326
-0.050413758 -0.118804485 0.104961276 0.17949234 -0.09435432 0.045322947 -0.108462855 -0.04360753
-0.17333493 0.017841669 0.15334696 0.15739778 0.31526592 -0.0025756813 -0.076345615 0.21981902
0.06317953 0.03247723 0.1012183 -0.12821034 0.0043281177 0.07601785 0.052245744 -0.09401609
0.0064356006 -0.17848828 0.001771294 -0.14318259 -0.05363171 0.18509598 0.051692136 0.15672758
-0.17565033 0.057135023 -0.036555227 -0.018929336 0.047254417 0.07889164 -0.19025192 0.17207684
-0.12460603 0.06707424 0.10212958 -0.15922084 -0.017130574 -0.020161957 0.14721999 -0.00610347
0.074986175 -0.21151395 0.055853106 0.13148488 -0.1011627 -0.1516661 -0.16846089 -0.14211611

bias f4 [16]
00000000: e31b 21be 7404 9bbc 2747 d63d 9be9 d23d
00000010: 3c24 89bd a14f 3f3e 6dcd 903d bccd 2cbe
00000020: ea19 2f3e f61c c93d 660d 3fbe 37f0 62bb
00000030: 6de3 893d de43 893e c35e 19be f3a1 2e3e
-0.15733294 -0.018923022 0.1046279 0.10298463 -0.06696364 0.1868272 0.07070432 -0.16875356
0.17099729 0.09819977 -0.18657455 -0.0034628042 0.06732831 0.2680959 -0.14977555 0.17053966

weight f4 [32, 16]
00000000: 9c5b 253e 21d6 8e3c 54a5 fcbd f7c7 f43d
00000010: 3ae7 91bd 1047 9d3d 7505 9bbd a257 59be
00000020: 2621 3cbe f0a0 3abe 455b 503e cf87 0bbe
00000030: c35e 5ebe b0bf a3bd 90f8 253d 7dac dbbd
00000040: c8b6 553e 8cad 6ebd 5b7f c1bd 104b 30be
00000050: c1b6 6b3d 34b3 893e bfca 1d3d 4613 293e
00000060: b75a b13d cbe4 3dbe ecf5 5bbe 60b1 3c3e
00000070: 265e 313e 41a0 24be 70c2 e23c 6eee 963d
00000080: 64db 2bbe 1ebd 253e 1065 18bd b673 d13d
00000090: 1e2d 15be 32d2 20be d09a 38be 73b8 47bd
000000a0: ecbf 86bc fa34 22be d046 0a3c ffe5 e63c
000000b0: 5155 843e 8581 e93d c0fa f8bd a87d fa3c
000000c0: 07f8 283e f79c 733d 3389 e9bd 3413 813c
000000d0: ac4b d83d b51b 13be 9e08 333e 89f7 25be
000000e0: cae7 61be 9a05 72be dce2 4c3e d64b c9bb
000000f0: 3c33 683e 25e1 10be 2444 62be 7e07 1f3e
00000100: 7964 bc3c 8a3a 53be 6806 86bd b594 7e3d
00000110: 8e3d 94bd 3185 58be d2ab 7bbe 4ab1 9ebd
00000120: 832e a5bd 1511 46be b129 653e f9c5 493e
00000130: d7f5 46be e8e9 2b3d 52fd 603e ef08 a33d
00000140: 052c e53d f128 1cbe 58c7 5bbe 7881 413e
00000150: 40dc 44be ac69 233e 66c1 333e de1b 13be
00000160: c80c 7b3e 28e2 f53d 2098 d8bd e2d0 853d
00000170: 09cd a13e 4d5f a73e f6d0 003e b7c2 f9bd
00000180: dbd9 99bc 398b b73d 887a 78be f7eb 58be
00000190: 44cb c6bd e32f 3b3d 4cc4 00be 3d69 10be
000001a0: d50e 0f3e ec03 133e 230d 703e b5fa 06be
000001b0: 430e c4bd 282a fabd 90ce a13c 2a3a 7cbe
000001c0: ec0b 5b3e 10d2 a1bd 7cb4 dfbd d22f 153e
000001d0: 4d54 583e 8939 243c adf5 55be 93d1 62be
000001e0: 94e5 3dbe 9e28 5abe 90d0 e2bd 47d2 96bd
000001f0: 8883 e5bd cb46 303e 285f e2bd e6b3 c6bd
00000200: 3c84 49be 3d0c 7ebe 6c0f cd3d b575 36be
00000210: 1026 c3bd 5c8b 443e 2d4e 0fbe 8b40 843e
00000220: 26ed 933e f3d3 52be 89d8 1bbe 6d6a 83bd
00000230: 810a 503e 31ed a53e cc89 1cbe be3d fe3d
00000240: 4251 4e3e f021 aebd 3c08 803c d682 ddbc
00000250: 44a9 0abd e011 8ebd 9eab 41be ca30 bd3c
00000260: 54c3 e33c 3d6c 29bc e6ca 9e3d eefe 2bbe
00000270: a87b 83be 5873 7fbe 22dd 703e 2560 3b3e
00000280: ce55 303e b52d 10be eb35 3dbe e29c 753e
00000290: a927 0cbe 29f8 ab3e d5cf 6ebd 639a aa3d
000002a0: c1b2 df3d 3ae7 f6bc db0b 35be 07f0 843e
000002b0: 7a9c 773d ff6c b63e b08a 18be 37c8 2a3e
000002c0: 4cec bb3c 6138 64be e365 27bd 7692 613e
000002d0: 81c2 a0bd fd42 b63e 5262 003e fab1 edbd
000002e0: e9cc 813e 7330 04be 8c2f 3cbe 7e85 8d3e
000002f0: 589a 9d3e 6ec9 173e 18b3 72bd 9ccc 313e
00000300: 3a04 c33d c333 38be d101 26be ed81 2abe
00000310: a4e4 353e 5dd8 0cbe aa67 26be 88b9 ab3b
00000320: 161a 143e cd68 f43d 67e5 2f3c 8187 72be
00000330: 87b1 adbd 4b75 2fbc b832 8a3d adb0 6c3e
00000340: 89ba b93d bd9f 643e 7df8 63bd 7f23 68bc
00000350: 09df e13d 1d57 8f3d f048 46bc 70ac 503e
00000360: adef 693e 99a5 87bc 8dc3 47be 59fa 49be
00000370: df16 b3bc be9d 73be 4c36 fd3d 3b17 50be
00000380: 9538 6ebe d49a ef3c c1e9 95bd 6716 36bd
00000390: de71 50be 5aa3 4f3e 7ebf 203d cebe 7ebd
000003a0: 786f 023d 4468 033e f6ba 88bd e5a6 7f3e
000003b0: 7c3f 34be 2477 54bd 008a e0bd af14 35bd
000003c0: ce23 4b3e 5642 ed3d f7a2 2dbe c11c a83d
000003d0: 3e15 303e d8ea 74be 3bf6 6bbe 8b57 173d
000003e0: 858f fe3d 57a4 b3bd 5a78 c9bd 8d3f 96bd
000003f0: 5b61 bdbd aefc 5f3e ca85 553e b4d6 a93d
0.16148227 0.017436089 -0.12336221 0.11952203 -0.07124181 0.0767957 -0.075694 -0.21224836
-0.1837202 -0.18225455 0.20347317 -0.13626026 -0.21715836 -0.07995546 0.04052025 -0.10726259
0.20870507 -0.058270976 -0.09448119 -0.17216134 0.057547335 0.26894534 0.038523432 0.16511258
0.086598806 -0.18544309 -0.2148053 0.18427038 0.17321071 -0.16076757 0.027680606 0.073696956
-0.1678291 0.16185424 -0.037205756 0.10227148 -0.14567992 -0.15705183 -0.18027806 -0.04875989
-0.016448937 -0.15840521 0.008439735 0.028185843 0.2584634 0.11401657 -0.12157202 0.030577496
0.16500865 0.059475865 -0.11403122 0.015756227 0.10561308 -0.14366038 0.17483756 -0.16207708
-0.22061077 -0.2363495 0.20008415 -0.0061430736 0.22675794 -0.14148386 -0.22096306 0.15530202
0.022997128 -0.206278 -0.06544191 0.062153537 -0.07238303 -0.21144558 -0.24577263 -0.07748659
-0.08065512 -0.19342454 0.22379185 0.19704427 -0.19429718 0.041971117 0.21971634 0.07960688
0.11190037 -0.15249993 -0.21462762 0.18897045 -0.19224644 0.1595828 0.17554244 -0.14366099
0.24516594 0.120060265 -0.105758905 0.06533982 0.31601742 0.32689896 0.12579712 -0.12195342
-0.01878064 0.089621015 -0.24265492 -0.21183763 -0.097067386 0.045699965 -0.12574881 -0.14102645
0.13970502 0.14356965 0.23442511 -0.13181575 -0.09573033 -0.12215072 0.019751817 -0.24631563
0.21391267 -0.07901394 -0.109230965 0.14569023 0.21125908 0.010023483 -0.20894499 -0.22150259
-0.18544608 -0.21304557 -0.110749364 -0.07364326 -0.11206728 0.17214505 -0.11053306 -0.09702282
-0.1967935 -0.24809356 0.10012707 -0.17818339 -0.09528744 0.19193786 -0.13994665 0.25830492
0.28891867 -0.20588665 -0.1521932 -0.064167835 0.20316507 0.32407525 -0.1528694 0.1241412
0.20148185 -0.08502567 0.015628926 -0.027039926 -0.03385283 -0.06937003 -0.18913123 0.023094554
0.0278031 -0.010340747 0.077535436 -0.16796467 -0.2568028 -0.24946344 0.23521855 0.18298395
0.17220232 -0.14079936 -0.184776 0.23985627 -0.13687004 0.3358777 -0.058303673 0.08330228
0.109227665 -0.030139554 -0.17680304 0.25964376 0.060451962 0.35630032 -0.14896655 0.16677938
0.022939824 -0.22287132 -0.04086865 0.22028527 -0.07849599 0.35597983 0.12537506 -0.11606212
0.25351647 -0.12909107 -0.18377513 0.2764091 0.30781817 0.14822933 -0.05925283 0.17363209
0.095222905 -0.17988496 -0.1621163 -0.16651125 0.17763 -0.13754411 -0.16250482 0.005240623
0.14463076 0.11934052 0.010735846 -0.23684503 -0.08481126 -0.010709117 0.06747955 0.23114271
0.09068782 0.2232656 -0.0556569 -0.014168619 0.11028869 0.069990374 -0.012102351 0.2037828
0.22845335 -0.016558455 -0.1950819 -0.19724406 -0.021861492 -0.23790643 0.12363872 -0.20321362
-0.23263772 0.029248632 -0.07319976 -0.04445496 -0.20355937 0.20277157 0.03924512 -0.062193684
0.031844586 0.12832743 -0.06676285 0.24966009 -0.17602342 -0.051871434 -0.109638214 -0.04420918
0.19837877 0.11584918 -0.16956697 0.08208609 0.17195603 -0.23917711 -0.23043148 0.03694872
0.12429718 -0.0877158 -0.09837408 -0.0733634 -0.09247085 0.21873733 0.20851818 0.082929045

bias f4 [32]
00000000: f7f1 643e c281 c83d ac47 dfbb 8a82 56be
00000010: c95e 5c3d e804 563d 07c8 1abd efe9 26be
00000020: e7e1 113e 827e 543e f0bf 45bc 32d6 a23c
00000030: 9b8b 44be b262 80be 1706 903c 6ac7 a83c
00000040: d066 8ebc 0c42 1d3d 771b 9b3e fc0e 2c3e
00000050: fffb 47be 5de9 893b f1d6 4abe 8657 653c
00000060: 3d9d 2fbe 9f24 383e b213 0e3e 92e1 1abd
00000070: 1cc2 5abe 323f 1fbe 2685 fa3d 8e78 8c3d
0.22357927 0.09790374 -0.006813964 -0.20948234 0.05380133 0.052250773 -0.037788417 -0.16300176
0.14246331 0.20751384 -0.012069687 0.019877527 -0.1919388 -0.250753 0.017581029 0.0206029
-0.01738301 0.038393065 0.30294392 0.16802591 -0.19529723 0.0042087273 -0.19808556 0.013997918
-0.17149825 0.1798272 0.138747 -0.037812777 -0.2136311 -0.15551451 0.12232427 0.068589315

weight f4 [16, 32]
00000000: ca12 c73c 84ba 1a3e fe48 e33d d805 cf3d
00000010: 6a9d 193e 9544 f53d 967c 79bc b5b8 1c3e
00000020: 3343 04be edc1 fe3d 5b7b cabd ab79 bc3d
00000030: 77f0 08be ca9f fa3d fc01 2e3e a89e 033e
00000040: ceb3 8abd dc4d 6ebd 488b b4bd 24c6 b9bd
00000050: 8f74 2d3d 365d c03b 2d53 c53c ce17 0cbd
00000060: 1862 c73d 3bce 5f3d e9d9 67bd 6d3b 333e
00000070: d1dd b1bb 667a 25be 4dcf f63c 182b 993c
00000080: a7a9 123e 79bb fcbd 80f6 0d3d 8da4 3f3a
00000090: fdc6 da3c 0ff9 7c3d 66e5 4a3d 5a19 583c
000000a0: f45b c63d ab40 00be 6fbe acbd 7a67 7a3d
000000b0: 0f51 f13d ec66 0abe dd5e e33c 5ae1 2cbd
000000c0: 5811 d93d 168f e13d 60c5 f6bd 940d 953d
000000d0: c335 a93d 5f34 dabc 64d2 deba 1e03 21be
000000e0: d617 0bbe a30e eb3c 30f7 913c b247 3d3d
000000f0: bca0 d3bd 1966 7a3d e38a 0ebd 61c4 53bd
00000100: 50e3 edbc 916a 95bc 0279 483d b307 023e
00000110: 2dc6 e23d aa54 b03c 3c76 1abe 5236 a0bc
00000120: 466a 3e3e 6d96 11be 1f60 2e3e 9641 433e
00000130: cb9f c33d ccba a8bd 736a a83c 91a5 083e
00000140: d68c f73c 5d89 02be 9b9f 2bbe 7283 e33d
00000150: c83f 0b3e 95e9 553e 64c2 1c3c d544 4abd
00000160: 1bd9 d3bd f55d 093e 9f43 263e cc06 993d
00000170: 0058 b6bd 53d9 f33d b202 ca3d 551b 26bd
00000180: 3124 153e cfa7 a9bc 4a69 28be c69a 913c
00000190: 0d42 9e3d a7c2 75be 92a4 9fbc 3ef4 2dbe
000001a0: 8f9b 33be a029 693e e05b bdbd af2c 54be
000001b0: 1450 2bbd f48e ee3d 5757 8a3d fff8 d5bd
000001c0: 8c7b 2e3d da82 f0bb a9e8 2b3e 8df9 173e
000001d0: 0fe9 a5bd 0ce6 b83d 7d5d e73d fe6a e3bd
000001e0: 3b0a efbc 12ab 063e 99f8 8d3c 44d6 40be
000001f0: ff82 2fbd 96eb 18be 4974 b4bd 7e26 3d3d
00000200: 70fb 9d3b 6cf0 5d3d 1c10 13bc 8633 2c3e
00000210: fcd5 a43c 7f18 493d 3be8 053e e82e 09bc
00000220: 96cf fbbb 66e4 c1ba 34d8 243e 657b 5d3d
00000230: e0c4 c93d 17c1 ee3d 7b7b bbbd 5934 be3d
00000240: b79b 0b3e 8549 ecbb c10e eebd 9b48 2dbd
00000250: a69f 9d3c 1434 06be 4001 303d 6b5b 643d
00000260: 8088 0d3e a63c 873d cd83 d0bd 0dde 6fbd
00000270: e7f9 8cbd 18f1 b6bd 3cbb 2bbe 1753 05be
00000280: 227d 00bc e6f9 14be 2104 84bc 3097 3fbd
00000290: 9389 23bb 33a7 81bd 8b23 81bd 6b4d 063d
000002a0: 6344 30be e992 c93d a36b 0a3d f55e 1a3e
000002b0: 3c1b 9a3d a413 9f3d e3a2 d63d 59f3 5ebd
000002c0: f724 223e be8f b8bd 0638 163e f628 44bd
000002d0: 05d3 f23d f2c9 bebb 45d1 023e 0eb8 f63d
000002e0: b3b6 77bc 533c 61bb 34c7 d53d b4e3 fd3c
000002f0: 3123 05be 570a f8bd 9add 13be 0143 303e
00000300: 6641 ce3d 265e 423c 40b2 e23d 707c 64bc
00000310: f637 63bd 7a73 2c3e 858c b33d ad4d 383c
00000320: 54a3 23be f415 033e 1343 ebbd 7ee2 a43c
00000330: e051 14be 4e31 2cbe ec49 133e 5b5a 9ebb
00000340: 056c 08bc 34a0 f53d 05a9 1bbd 99a9 aa3d
00000350: 8c5f 2b3e b91e 5f3d f192 a63c 870b 473d
00000360: 75e5 0c3c f4e8 22bd 1e82 c8bc 6b29 cb3c
00000370: 2fa1 23be 1fda 6a3d 5f38 b1bd 0b3c efbd
00000380: a765 f43d fd8b d0bc aa85 093e 5188 4bbd
00000390: 46ab b5bd ff9f 27be 647b c4bd 6fe9 c93c
000003a0: 8eb6 34bd 33fd 143d 087f f23d 4e77 ea3d
000003b0: a1a5 1dbe a925 823d 6d82 a2bd ba10 283e
000003c0: 800a 0ebe 4703 623d 85a6 adbd 39e5 0e3d
000003d0: b70f 15be 4d1a 6d3b 9497 0ebe c37f aebd
000003e0: 7dbb ebbd 88d3 13be 2cc5 a33d 94c4 45bd
000003f0: 7ca0 b3bd 6131 073e 7dbb df3d c7a3 14be
0.024300952 0.15110213 0.110979065 0.101085365 0.15001455 0.119759716 -0.0152274575 0.15304835
-0.1291626 0.12439332 -0.098868094 0.09202894 -0.1337298 0.122375086 0.16992944 0.12853491
-0.06772576 -0.05817972 -0.08815628 -0.090709955 0.042347487 0.0058704866 0.024087513 -0.03420239
0.09735507 0.054640036 -0.0566043 0.17503138 -0.005428054 -0.16159973 0.030128146 0.018697307
0.1432253 -0.12340445 0.03465891 0.0007310592 0.026706213 0.06176096 0.049535178 0.013189638
0.096855074 -0.12524669 -0.0843476 0.06113384 0.11783039 -0.13515824 0.027755195 -0.0422071
0.10599011 0.110136196 -0.12049365 0.072779804 0.08262207 -0.0266363 -0.0016999957 -0.15723845
-0.13583311 0.028693503 0.017818063 0.046210952 -0.10333392 0.061132524 -0.03480042 -0.051700953
-0.029039055 -0.018239291 0.048943527 0.1269825 0.11072955 0.021524746 -0.15084165 -0.019557152
0.18595228 -0.14217539 0.17028855 0.19067988 0.095519625 -0.08238754 0.020558571 0.13344409
0.030218523 -0.12747712 -0.16760103 0.111090556 0.1359855 0.20889886 0.009567831 -0.04938205
-0.10344144 0.13414748 0.16236733 0.074719995 -0.089035034 0.11906686 0.09863795 -0.04055341
0.14564587 -0.0207099 -0.16446415 0.017773997 0.07727442 -0.24000035 -0.019487653 -0.16987702
-0.1753981 0.22769785 -0.092460394 -0.2072017 -0.041824415 0.1164836 0.0675494 -0.10447883
0.042598292 -0.0073398175 0.16787972 0.1484129 -0.08101093 0.09028253 0.11297128 -0.111043915
-0.029179683 0.13151196 0.017330455 -0.18831736 -0.042849537 -0.14933619 -0.08811242 0.046179287
0.0048212335 0.054184362 -0.008976009 0.1681653 0.020121567 0.049095627 0.1307687 -0.008373
-0.0076846583 -0.00147928 0.160981 0.054072756 0.09852004 0.11657923 -0.091544114 0.09287328
0.13633619 -0.0072109126 -0.11623908 -0.04230557 0.019241165 -0.13105804 0.042969942 0.055751245
0.13821602 0.06603365 -0.10181389 -0.058561374 -0.068836026 -0.08932704 -0.16770643 -0.13019978
-0.007842334 -0.14548454 -0.01611525 -0.046775043 -0.0024953827 -0.06330719 -0.063056074 0.032788675
-0.17213587 0.09842474 0.033794057 0.15075286 0.07524726 0.07767418 0.10480287 -0.054431293
0.15834413 -0.09011792 0.14669809 -0.047890626 0.11856655 -0.0058224136 0.12775142 0.120468244
-0.0151192425 -0.0034368231 0.104383856 0.030992366 -0.13001706 -0.12111347 -0.14440003 0.1721306
0.100710675 0.011863267 0.11069155 -0.013945684 -0.05547329 0.16840926 0.08767036 0.011248988
-0.15980273 0.12801343 -0.11487403 0.020127531 -0.14484358 -0.16815683 0.14383668 -0.0048325486
-0.008326535 0.11993447 -0.038002986 0.083331294 0.16735667 0.05447266 0.020333739 0.048594978
0.008599629 -0.039772943 -0.024476107 0.024800023 -0.15979455 0.057336923 -0.0865333 -0.11681374
0.11933451 -0.025457377 0.13429895 -0.04969055 -0.088705584 -0.16369627 -0.095938474 0.024647443
-0.04411941 0.036374282 0.118406355 0.11448537 -0.15395214 0.06354839 -0.07935033 0.1641263
-0.13871193 0.055178907 -0.08479027 0.034886573 -0.14556776 0.0036179007 -0.1392501 -0.08520462
-0.1151037 -0.14436162 0.07996592 -0.048283175 -0.08770844 0.1320243 0.109244324 -0.14515601

bias f4 [16]
00000000: 43fc 2bbe 2734 0bbe 0467 163d d526 6e3e
00000010: 2db0 653a f981 27be fd84 58bd de51 28bd
00000020: 8bea ff3d 4325 7f3d 0373 833e 94ab f037
00000030: ea93 47be fa1c d2bb e8e0 8bbd 0b4c 7dbb
-0.16795449 -0.13594113 0.036719337 0.23257 0.0008761909 -0.16358174 -0.052861203 -0.0410937
0.124959074 0.062291395 0.25673684 2.8690127e-05 -0.19490018 -0.0064121457 -0.06830007 -0.0038650061

weight f4 [2, 16]
00000000: 87dd 003e b27e 9a3d e447 923e 0e5f b6be
00000010: 9bff 25bd 58fd 59bd f79e 463e 6b9a d1bd
00000020: 1542 f73d 50d2 a93e 12dd d7be 2389 b93e
00000030: 32ee 65bd c44e 30bd a467 e93d d3cc 963e
00000040: 2100 913d 9937 463e f4f6 83be 8081 ad3e
00000050: ca79 16be 6bc5 0ebc 301a d3bc 8696 5ebe
00000060: 6a2e 8ebe cb6c 5bbe 98e2 313e 0c6d 84be
00000070: 8f33 9a3c 0553 d4be 1169 b03d f32c c9be
0.12584506 0.075436965 0.28570473 -0.35619396 -0.040526967 -0.053220123 0.19396578 -0.10234531
0.12073151 0.33168268 -0.4216085 0.3623744 -0.056135364 -0.043043867 0.11396721 0.29453143
0.07080103 0.19357146 -0.25774348 0.33887863 -0.14694896 -0.00871406 -0.025769323 -0.21737108
-0.27769786 -0.2142822 0.17371595 -0.25864446 0.018823413 -0.4146959 0.0861379 -0.39292106

bias f4 [2]
00000000: 7b7b 8fbe 76af af3e
-0.28023896 0.34313554
